…
# optimizer = keras.optimizers.Adam(learning_rate=MODEL_LEARNING_RATE) #Adam, RMSprop or SGD
# Legacy needed for M1/M2
optimizer = keras.optimizers.legacy.Adam(learning_rate=MODEL_LEARNING_RATE)  # Adam, RMSprop or SGD
#+end_example

Now figure out how to PyCharm debug script file with ~--params param.yaml~ arguments in the IDEs.

~src/train.py --params params.yaml~ error-2023-06-18-a.

#+begin_example
Model: "sequential"
_________________________________________________________________
 Layer (type)                Output Shape              Param #
=================================================================
 conv2d (Conv2D)             (None, 471, 471, 4)       404

 max_pooling2d (MaxPooling2  (None, 235, 235, 4)       0
 D)

 dropout (Dropout)           (None, 235, 235, 4)       0

 conv2d_1 (Conv2D)           (None, 231, 231, 4)       404

 max_pooling2d_1 (MaxPoolin  (None, 115, 115, 4)       0
 g2D)

 dense (Dense)               (None, 115, 115, 8)       40

 dropout_1 (Dropout)         (None, 115, 115, 8)       0

 flatten (Flatten)           (None, 105800)            0

 dense_1 (Dense)             (None, 1)                 105801

=================================================================
Total params: 106649 (416.60 KB)
Trainable params: 106649 (416.60 KB)
Non-trainable params: 0 (0.00 Byte)
_________________________________________________________________
Traceback (most recent call last):
  File "/Users/wasmer/src/github.com/irratzo/forks/dtc-workshop-pycharm/src/train.py", line 120, in <module>
    estimator = train_estimator(model)
…
